save.pt (torch, 18509 bytes, 4 tensors)

weight f4 [256, 11]
00000000: e068 6a3d c2a4 b4bd 1c61 b93d ee07 353e
00000010: 643b 8f3d 00d7 873d dcb3 26be 8886 7e3e
00000020: 1c32 5ebd 402c 97bb b409 d23d 00fd a7ba
00000030: da7f 31be 5c5d d03d ae55 833e d015 823e
00000040: 8c33 a53d d6f1 17be e06c 133c 5a36 28be
00000050: 88b0 76be e813 903d 4f75 0cbe b6c7 a2bd
00000060: 64b7 da3d 0068 ea3d 20a3 613e 10f6 afbd
00000070: 5c36 8e3e 54f5 ffbd 4795 1dbe 7829 443e
00000080: 204c a73d b67a 76be 2d06 87be 10cf 083d
00000090: eebe c8bd ca4b 03be 3656 e4bd 0345 45be
000000a0: 8826 32bd c793 0abe f0f6 bb3c 0097 3dbd
000000b0: 2c5d b43d 6cdb 7e3e c8e0 50be 70d4 903e
000000c0: 8008 3c3e 54ad f63d 1460 543e a924 8cbe
000000d0: b4d0 b73d ae43 403e 0c76 59be 9074 ecbc
000000e0: e242 98be e240 dcbd cceb 85bd d8ff 3b3e
000000f0: d0fb 7c3e 245d b9bd ce40 303e 8ab5 8d3e
00000100: efd1 13be c215 96bd a166 10be 80aa 87bb
00000110: fca8 8ebe c42f 083e 20ae 513c a02e 3c3d
00000120: d29c a1bd 2070 d93d 2099 f8bc 80b4 1a3d
00000130: ab77 98be 6d63 81be 280b 7b3e a025 053e
00000140: b2aa 133e c277 88be b4b9 6e3e 5a61 263e
00000150: 60e2 afbc e6b0 113e f0f7 633d 80a7 22bc
00000160: d2d8 53be 9a5e 99bd 6e4e e4bd 5462 c83d
00000170: 4141 54be 1c36 913e 8a88 133e 9ef9 40be
00000180: 58ca 773d 90df bb3d e0a7 8d3e 7616 99be
00000190: b28b 6ebe 5a06 74be ac5c 3f3e 4035 663e
000001a0: 7122 83be 6c20 673e 3e5f 78be 606b e5bc
000001b0: 07ff 86be 886c 873d df22 01be 903a 9abe
000001c0: 4ae8 383e 02bf 89be e078 1e3d 500f d7bc
000001d0: fc93 2b3e 9718 47be 1c79 64be c0eb 9f3d
000001e0: fcc7 9cbd a0f0 163c 0041 343d fe55 c1bd
000001f0: 80cd 3cbc f0c3 6f3d f82f 813e 0e47 3e3e
00000200: 6d73 1fbe 0c05 2e3e ccde 033e a0c3 4fbc
00000210: e25b 853e b0be 483d aee7 17be 5401 893e
00000220: d016 6ebe 52d5 d1bd 9a00 34be e2da a5bd
00000230: 7e37 74be 80d3 a53d d278 1b3e bed7 28be
00000240: 58c0 533e cca4 7bbd e709 2bbe f86d 543e
00000250: de07 483e aab0 3cbe 7039 673e 5c73 4c3e
00000260: 66d3 853e 704e c8bc d6f8 84bd 8065 b93b
00000270: c299 fbbd a493 953e a051 47bc 7744 80be
00000280: 08d8 873d 002b e4ba 1453 f13d 0053 5e3d
00000290: 2cea 2e3e 20a4 65bc 5671 473e 3cdc 56be
000002a0: 591b 4abe a810 2a3d a8da dc3d 1802 46bd
000002b0: a8ea 2b3d a82f 663e 2a3c 3cbe d04b c03c
000002c0: 6e5c 053e 42ee 203e 902f 71bd 7444 ae3d
000002d0: c019 973b 0811 27bd 00a8 0d3c 7cc3 403e
000002e0: 509c be3d afe3 8bbe da37 393e 18c7 f33d
000002f0: 08e8 0abe 85ec 95be 789a 3c3d 525d c1bd
00000300: bd84 76be 748a f63d 04db 2d3e 38d4 d43d
00000310: 510b 73be 3ab4 42be 3fc2 8dbe 2814 45bd
00000320: 22df 71be 023a 3c3e 19d6 68be b036 c0bd
00000330: b612 edbd 9452 333e 7e0f 0e3e e8e7 c2bd
00000340: 483a 203e 1003 99bc cc91 8e3e f020 bc3c
00000350: 7036 07bd 4614 273e a2bc 333e 70bd 523e
00000360: d05b 30bd 70b8 91bd 283c 17bd 78cf 983e
00000370: b2ed 8bbd e428 173e 1f59 98be e3c4 26be
00000380: 2123 58be a00e 163d 3a0f 943e 4ed9 f3bd
00000390: 98ad 743e d09d 9f3c ad0b 78be 672b 1ebe
000003a0: bc02 f83d d4a6 2f3e 9810 63bd 32fe 99be
000003b0: 3e67 8dbe 90a6 ddbc 3021 4d3e 6eff 98be
000003c0: ca5f f1bd 96da 953e a0f9 83be 8842 613d
000003d0: a4c7 6d3e fa60 8b3e 94f4 733e 6ca9 823e
000003e0: d89b 5d3e 3632 84be 4049 afbb bed3 21be
000003f0: c6d7 49be 7646 89be 009e 37ba efc0 82be
0.057228923 -0.088204876 0.09051725 0.17678806 0.0699375 0.06632805 -0.16279548 0.24856007
-0.054247007 -0.0046134293 0.10255757 -0.0012816489 -0.17333928 0.10174057 0.25651306 0.25407267
0.080664724 -0.14838347 0.008998126 -0.16426983 -0.24090779 0.07035047 -0.13716625 -0.07948248
0.1067951 0.11445618 0.22034883 -0.085918546 0.27775848 -0.124979645 -0.15388976 0.19156444
0.081688166 -0.24070248 -0.263719 0.033400595 -0.09802042 -0.1282188 -0.11149256 -0.19264607
-0.043493778 -0.13532935 0.022944897 -0.046286583 0.088068336 0.2488839 -0.20398247 0.28287077
0.18362617 0.120447785 0.20739776 -0.2737172 0.08975354 0.18775818 -0.21236438 -0.028864175
-0.29738528 -0.10754563 -0.06539115 0.18359315 0.24705434 -0.09050968 0.17212221 0.27677566
-0.14435552 -0.07328369 -0.1410165 -0.004140198 -0.278633 0.13299471 0.012797862 0.045942903
-0.07891239 0.10617089 -0.030346453 0.037769794 -0.297788 -0.25271168 0.24515975 0.13002634
0.14420584 -0.26653868 0.23313028 0.16248074 -0.021470249 0.14227638 0.055656374 -0.00992763
-0.20688179 -0.07488747 -0.11147772 0.097843796 -0.20728017 0.28361595 0.14407554 -0.18845221
0.060495704 0.091735005 0.2766714 -0.2989995 -0.23295477 -0.23830548 0.18687695 0.22481251
-0.25612214 0.22570962 -0.24255082 -0.028005302 -0.26366445 0.066124976 -0.12610959 -0.30122805
0.18057361 -0.2690354 0.038689494 -0.026252419 0.1675567 -0.19442974 -0.22311825 0.078086376
-0.076553315 0.009212643 0.0440073 -0.0944023 -0.011523604 0.05853647 0.2523191 0.18581793
-0.15571375 0.16994113 0.12877959 -0.012680918 0.26046664 0.04900998 -0.14834473 0.26758826
-0.2325089 -0.10245766 -0.17578354 -0.08098389 -0.23849294 0.08096981 0.15182808 -0.16488549
0.20678842 -0.06143646 -0.16702996 0.20745075 0.19534251 -0.18426767 0.22580504 0.19965881
0.26137847 -0.024451464 -0.06492774 0.0056578517 -0.12285186 0.29214203 -0.012165457 -0.25052235
0.066330016 -0.0017407835 0.11783424 0.054278374 0.17081517 -0.014016181 0.19476828 -0.2098245
-0.19736995 0.04151979 0.10783893 -0.04834184 0.041971833 0.22479117 -0.18382326 0.02347365
0.1302354 0.15715888 -0.05888325 0.0850915 0.004611224 -0.040787727 0.008646011 0.18824571
0.09307158 -0.27322146 0.18087712 0.119032085 -0.13565075 -0.29282013 0.04604575 -0.094416276
-0.24074073 0.120381266 0.16978079 0.1039204 -0.23734786 -0.19014063 -0.2768726 -0.048114926
-0.23620275 0.18381503 -0.22737922 -0.09385431 -0.115758345 0.1751197 0.13873097 -0.09516889
0.15647233 -0.018678218 0.2784561 0.022964925 -0.0330109 0.16316327 0.17552426 0.20580077
-0.04305631 -0.07115257 -0.036922604 0.29845786 -0.06832446 0.14761692 -0.29755494 -0.16286044
-0.2110715 0.03663504 0.28917867 -0.11906682 0.23894346 0.01948443 -0.24223204 -0.15446244
0.121098965 0.17153484 -0.055435747 -0.30076748 -0.2761783 -0.027056962 0.20032191 -0.29882377
-0.117858484 0.2926833 -0.25776386 0.05499509 0.23220688 0.27222425 0.23823768 0.25519884
0.21641481 -0.25819558 -0.0053493083 -0.1580343 -0.19711217 -0.2681157 -0.000700444 -0.25537822

bias f4 [256]
00000000: d750 08be d6e4 8e3e 10a8 963d 48d0 73bd
00000010: 8c80 3dbe 2479 793e 6689 963e 721e 483e
00000020: 407e 513c 0828 d13d de1e dabd ec59 433e
00000030: 1cec a23d 8fa5 44be e8c0 63bd c27b debd
00000040: d9ed 15be c428 5abe 2a71 933e ce1d 8abd
00000050: ac4a 9a3d f863 6b3e 3ee3 43be e212 153e
00000060: 2053 f23d a0da c43d e0cc e03d b68f 913e
00000070: 0407 3dbe 1683 993e 0ca1 643e 68c3 23bd
00000080: 915f 8fbe 1353 26be ac11 263e 5615 3bbe
00000090: 2031 993d c498 6a3e c4df ee3d 9266 173e
000000a0: 0487 e2bd 8e52 963e 7a95 413e 4e1b 6fbe
000000b0: a539 81be aa93 f7bd 4442 993e 00ad d93d
000000c0: 60ce 283e 7068 6d3e 58fb f93d b48f 003e
000000d0: 3624 81bd baf2 1d3e 783b 503d 6b48 0ebe
000000e0: 8891 943d 16d3 093e 76be c9bd 0080 dcbb
000000f0: 420c 393e 485c 4fbd 12a9 26be e296 8abe
00000100: 00b0 c6ba 4239 04be d861 e63d 34d7 b13d
00000110: a0de 04bd e0ef 70bc e889 7c3e 0aa9 973e
00000120: fe95 86be 7406 023e e8c2 923e 0204 95bd
00000130: aaa2 63be e14d 58be 782f 6f3e 7e22 913e
00000140: f605 073e f261 8fbe 38e3 1fbd 04b7 4dbe
00000150: 503c 213d cec2 78be ba5e 933e d0a9 e9bc
00000160: ca1a 913e b469 9a3d d02f 7abe a6ba 9dbd
00000170: 34ab 853d 79c9 03be 6a0d 133e f06e 593d
00000180: a9ec 0cbe 3287 03be 14fb a8bd 09c4 1cbe
00000190: d02e a53c 9e51 373e 8c8c 73bd 2c18 f33d
000001a0: 64bf ab3d a72c 60be aa4f a5bd f6b7 8abe
000001b0: 708c 453d 1cac 52be c823 a83d 0c88 92bd
000001c0: e75f 86be 4c1e 193e 18aa 853e 2eec 0cbe
000001d0: 0016 81bb 50c5 013e f045 58be 081a 283d
000001e0: c8b4 26bd d0b6 a33d 7f5e 5bbe f6fb 363e
000001f0: 503c 3f3d 5a20 293e e695 3ebe aafd 65be
00000200: 104e 273d e2fd 78be 801b 573e 2cce 983d
00000210: d42e a53d 78b8 243e 1c37 4e3e fc81 a23d
00000220: 506e 43bd 9dc4 92be 461b 2fbe bcf9 64be
00000230: 9a07 2a3e c215 223e b02a bfbd e622 80be
00000240: 443a 083e 00bd 4ebe f8e1 6cbe 442a 12be
00000250: 986d 423d c3eb 51be 5cbd ca3d 628d babd
00000260: 6c88 7a3e cc43 9d3d a0b3 7f3c 40a6 573e
00000270: b823 663e 8089 0b3c f00e 063e a5b8 16be
00000280: 022a 3bbe 10a3 80bc 1178 39be b85b 4a3e
00000290: 9a46 883e b0da 2dbd b432 bc3d b4d0 5e3e
000002a0: 66cb 89bd 3c38 a5bd 641e a53d 8600 023e
000002b0: b4af 69bd 6ed3 823e 642c 513e e8e6 0cbe
000002c0: 5602 943e 304b cdbc 108f 653e 2eef 80bd
000002d0: ac01 b4bd b46a 203e a54d 04be f48c 7abe
000002e0: 80ff c33c b0b3 423e aa8f 38be ccf0 503e
000002f0: 4610 9cbd 9ca9 b8bd e2d4 913e 9852 853e
00000300: 54eb e2bd f022 8dbc 4436 f13d 7e19 abbd
00000310: d0c2 853c d850 4c3e b043 5abe dc8a b2bd
00000320: bc19 6bbe 004a 33bc 3c5a a33d 13a6 84be
00000330: d599 91be ea5a 863e 0450 89be 16cd 3ebe
00000340: ca85 8abd 7f1c 40be ea10 10be ece7 c2bd
00000350: 4a32 90be f8f3 f93d a8e3 a2bd 72a8 b1bd
00000360: 3a93 013e 6a2f 363e 00dc 2f3b 90f3 263d
00000370: 88be 693e eaa5 55be 18e3 993e 86ec 82be
00000380: 66d8 863e 60e6 0c3d 8299 973e 07fd 74be
00000390: 6055 553c 7698 0e3e e4ff 79be 40e5 d4bb
000003a0: 80ce 55bc c048 8cbe 5c36 823e f29d 823e
000003b0: 96fc 7fbe fb25 8abe 808f b63d d075 8f3e
000003c0: f404 523e f007 a23d 0b55 80be af77 8ebe
000003d0: c23c 863e 98be 013e 8e55 273e ac78 5a3e
000003e0: 105c 0ebe 7667 96be 4029 0cbc 50c2 5f3e
000003f0: e671 353e 121a e8bd 9c65 6e3e 9cbd 2abe
-0.13312088 0.27908963 0.07356274 -0.059524804 -0.18506068 0.24362618 0.29401702 0.19542864
0.012786448 0.102127135 -0.10650419 0.19077271 0.079551905 -0.1920378 -0.05560389 -0.10863449
-0.14641513 -0.21304613 0.28797275 -0.06743966 0.07533774 0.22987354 -0.19129655 0.14557984
0.11832261 0.09612012 0.10976577 0.28429955 -0.18459707 0.29982823 0.2232706 -0.039981276
-0.280026 -0.16242628 0.16217679 -0.18269858 0.07480073 0.22909838 0.11663774 0.14785221
-0.110609084 0.2935986 0.18904677 -0.2335026 -0.25239292 -0.120887116 0.2993337 0.106287
0.16484976 0.23184371 0.12206143 0.12554818 -0.06305735 0.15424624 0.050837964 -0.13894813
0.072543204 0.13459429 -0.09850781 -0.006729126 0.18071082 -0.050625116 -0.16275433 -0.2706824
-0.0015158653 -0.12912467 0.11249131 0.08683625 -0.032438874 -0.014705628 0.24661982 0.29621154
-0.2628631 0.12697774 0.28664327 -0.07276155 -0.2223002 -0.21123458 0.23357952 0.28346628
0.13185868 -0.28004414 -0.039035052 -0.20089346 0.03936416 -0.24293062 0.28783208 -0.028523356
0.2834075 0.075396925 -0.24432302 -0.07701616 0.06526795 -0.12869824 0.14360586 0.053084314
-0.13762154 -0.12844542 -0.08251014 -0.15309156 0.020163924 0.17902228 -0.059460208 0.11869845
0.08386114 -0.21892034 -0.08071835 -0.27093476 0.048229635 -0.20573467 0.0820995 -0.07154855
-0.26245043 0.14952964 0.26106334 -0.1376197 -0.00393939 0.12672925 -0.21120429 0.04104045
-0.04069975 0.07993853 -0.21422766 0.17869553 0.046688378 0.16516247 -0.18611869 -0.22460046
0.04084593 -0.24315599 0.21006584 0.07461199 0.080655724 0.16085994 0.2013821 0.07934949
-0.047712624 -0.2866563 -0.17100248 -0.22360891 0.16604462 0.15828612 -0.09334314 -0.25026625
0.13303477 -0.20189285 -0.23133075 -0.14273936 0.047467798 -0.20500092 0.09899399 -0.09108998
0.24466103 0.07678947 0.015606791 0.21059513 0.22474563 0.008516669 0.13091636 -0.14718874
-0.18277743 -0.015702754 -0.18112208 0.1976155 0.26616365 -0.042444885 0.09189358 0.21759301
-0.06728248 -0.080673665 0.08062437 0.12695512 -0.05705233 0.25551933 0.2042709 -0.13759959
0.28908032 -0.025060266 0.22417855 -0.0629562 -0.087893814 0.15665704 -0.12920244 -0.24467832
0.023925543 0.19013858 -0.18023553 0.20404357 -0.076202914 -0.090167254 0.2848273 0.26039577
-0.110800415 -0.017228574 0.117779285 -0.083544716 0.016328245 0.19952714 -0.21314883 -0.087178916
-0.22959036 -0.010942936 0.07976195 -0.25907955 -0.28437677 0.26241237 -0.2681886 -0.18632922
-0.067637995 -0.1876087 -0.14068952 -0.09516892 -0.28163368 0.122047365 -0.07953578 -0.086747065
0.12653819 0.17791525 0.002683401 0.040759623 0.22826588 -0.20864072 0.3005607 -0.25571078
0.26336974 0.03439939 0.29609305 -0.23924647 0.013020843 0.13925347 -0.24414021 -0.0064970553
-0.013049722 -0.27399254 0.25432098 0.25511128 -0.24998698 -0.26982102 0.08914089 0.2801957
0.20509702 0.0791167 -0.25064883 -0.27825686 0.2621823 0.12670362 0.1634123 0.21335095
-0.13902307 -0.2937581 -0.008554757 0.21851468 0.1771923 -0.113330975 0.23280948 -0.16673893

weight f4 [3, 256]
00000000: 30db 793c 00b6 62bb 7024 e7bc 200d e93c
00000010: 68d9 0cbd 00d6 a039 7eab 713d 300e 933c
00000020: d6a6 0a3d 5011 f03c 00d4 a63c 5433 81bc
00000030: e05f 1d3d 22a9 2cbd 103f 513d 1054 45bd
00000040: ec2f 3abd 288b 343d c064 e83c e8db 683d
00000050: 00e4 88b8 5403 d43c ae31 333d 34c0 3d3d
00000060: 74a3 e43c 0025 28bd 8c83 5d3d 3c88 b63c
00000070: 6868 69bc 58e6 773d 26af 133d d0bb cabb
00000080: 2cb2 b93c c636 47bd c051 42bd b098 063d
00000090: 00c8 20bd 70fc 323c 7af9 643d 5c53 303d
000000a0: 2864 103c 1e81 29bd 785b 8abc 8003 a3bc
000000b0: 946d e03c 204a 6bbc 40bf 2bbc f86f 5f3d
000000c0: 38cb eb3c 3c1c 863c fccb 6b3d 30c2 1fbd
000000d0: 1823 5b3d d89b 633c d4dc 76bd a0c5 e43b
000000e0: 8439 f03c e02c 2a3c 2c88 c7bc 0056 7d3b
000000f0: 38ba 263d 40ac 623b fc5d c3bc 5a0d 76bd
00000100: 7a97 35bd de47 56bd 78be 75bc d4e0 c13c
00000110: 5055 a73b 20ed 78bd 30ad 8ebc 7a6f 74bd
00000120: 8e19 683d 40e4 37bc 4657 7dbd 66ff 5dbd
00000130: ceb4 213d 9e12 0cbd 70eb 5b3c 10a7 eebb
00000140: 2403 00bd 00fe 3d3a e0bb d53c e0d7 943c
00000150: 420f 0d3d 7896 23bd b044 4cbd 4837 29bc
00000160: cc60 29bd c4cd 6fbd b0a1 8cbb 1615 683d
00000170: 8436 28bd f2d3 123d f092 bc3c 7287 77bd
00000180: 52ee 2e3d b02b 56bd 4c70 a8bc 5836 3c3d
00000190: bc16 d7bc da8e 01bd 745e 013d c84c a4bc
000001a0: 20b3 43bd 7af5 41bd 8af5 103d 3411 a1bc
000001b0: 30c2 143c ac88 f13c 8ed8 35bd 2095 613c
000001c0: dc31 5b3d def6 3c3d e67f 463d a071 f9bc
000001d0: d8ea e73c 8e0e 7c3d 563f 41bd 0495 5f3d
000001e0: e0b1 27bc e46c babc f4b0 75bd cea9 52bd
000001f0: d0cc b43c c476 d53c e801 e7bc a440 443d
00000200: f254 44bd c8c3 4c3c a87a 0bbd 4cfd c83c
00000210: 46dc 2e3d 9003 28bc 6cc1 4e3d beed 533d
00000220: 2079 1bbd 8048 05bc 40e1 233d 16b9 7c3d
00000230: b0d3 853b a2ee 4e3d 9e89 0c3d 0862 27bd
00000240: 903c 16bc 9683 063d 40e5 5cbd 5afa 42bd
00000250: 0ec5 7bbd 2236 433d 1497 0ebd 3e07 1d3d
00000260: a00c 013d e876 edbc 7c30 94bc 4853 37bc
00000270: 187d c7bc 90fc 85bb 1a3e 473d 6a94 133d
00000280: d241 773d 5833 41bc d010 643d c00b ac3a
00000290: 7e54 543d 42b2 2bbd eeab 62bd 0086 c3bb
000002a0: 383e 66bd 6620 243d 549d 75bd 6044 4e3c
000002b0: 9406 7abd 5e7e 60bd 10c0 5e3d e442 cc3c
000002c0: f458 8f3c 444e 503d c0f7 d33c 0a1f 31bd
000002d0: d88e 6abc 3495 c93c a0d5 923b b650 24bd
000002e0: 68e2 93bc ec9c 8c3c a07c 173c 929c 5c3d
000002f0: e0d8 d5bc c237 6a3d aa94 673d b866 39bc
00000300: cc90 ccbc 502a debb 1cf5 a83c 5096 3a3d
00000310: 4e1e 553d c4c7 953c 4095 dc3b 606e 11bb
00000320: 7013 923b 18e5 18bd fe6b 403d 207e 3c3b
00000330: 009c e5bb c0af 75bb 6484 4a3d 887c 3abd
00000340: 50aa f03c 3049 90bb f0cc ac3c cc98 03bd
00000350: 78ec 95bc 18ac 563c 90bd 96bb dc2c 683d
00000360: 38fe 6c3d 004c 90b9 8cb1 0c3d 2094 6fbc
00000370: a456 11bd b0e3 24bc 7ac0 0cbd 2c9a 383d
00000380: 0a70 35bd 62a1 69bd 804c bd3a a6e8 7b3d
00000390: b07f 713c c03e 2abd a858 2c3d 4219 4f3d
000003a0: 507c 8dbc 2289 513d 3a19 53bd 50b7 d13c
000003b0: 9eeb 30bd 1891 373d c417 ec3c ea9c 19bd
000003c0: e414 15bd 60d0 f63b 1415 003d 54df 60bd
000003d0: 68b8 7abc 24f8 31bd 4075 5d3b 4093 65bb
000003e0: 849a 1a3d 5498 3cbd f62f 7f3d 101e 71bc
000003f0: 1431 30bd f019 643d 5851 64bd 089f 613d
0.015250012 -0.0034593344 -0.028215617 0.028448641 -0.034387022 0.0003067702 0.05900144 0.017951101
0.033850513 0.02930513 0.020364761 -0.015771545 0.03842151 -0.042153485 0.05108553 -0.04817587
-0.045455858 0.044078022 0.028368354 0.056850344 -6.527454e-05 0.025880493 0.04374855 0.046325877
0.027909972 -0.04105091 0.05408053 0.022281758 -0.014246084 0.060522407 0.036055706 -0.00618694
0.022667967 -0.04863622 -0.047441244 0.032860458 -0.039253235 0.010924444 0.055901982 0.043048248
0.008812942 -0.0413829 -0.016889319 -0.01989913 0.027396 -0.0143609345 -0.010482609 0.05455014
0.028783426 0.016370885 0.05756758 -0.03900355 0.053500265 0.0138921365 -0.06026919 0.0069815665
0.0293243 0.010386676 -0.024356924 0.0038655996 0.040704936 0.0034587532 -0.023848526 -0.060071327
-0.044333912 -0.05231463 -0.014999025 0.023666777 0.0051066056 -0.060773015 -0.017416567 -0.059676625
0.056664996 -0.011223853 -0.06185081 -0.054198645 0.03947907 -0.034197442 0.013422832 -0.007283099
-0.031252995 0.0007247627 0.026090562 0.018169343 0.03443838 -0.03993842 -0.049870193 -0.0103281215
-0.04135208 -0.058545843 -0.0042917356 0.056660734 -0.041067615 0.035846658 0.023019284 -0.060431905
0.04270775 -0.052287757 -0.02056136 0.045950264 -0.026255958 -0.031630374 0.03158422 -0.020056143
-0.04777825 -0.047353245 0.035390414 -0.019661523 0.009079501 0.029484116 -0.044395976 0.013768464
0.053514346 0.04613387 0.048461817 -0.030449688 0.028310224 0.061537318 -0.047179542 0.05458547
-0.01023528 -0.022757001 -0.05998321 -0.05143147 0.022070318 0.026057608 -0.028199151 0.04791321
-0.047932573 0.01249785 -0.03405252 0.024534844 0.042690538 -0.010254756 0.05047743 0.0517404
-0.03795731 -0.008134961 0.040009737 0.06169995 0.004084073 0.050520547 0.03431093 -0.040864974
-0.009169713 0.032840334 -0.053929567 -0.047602035 -0.061467223 0.047659047 -0.034812048 0.038336985
0.03150618 -0.028987363 -0.018089525 -0.011189289 -0.024351642 -0.0040889457 0.04864321 0.03603021
0.060365506 -0.011792026 0.055680096 0.001312606 0.05183839 -0.041918047 -0.055339746 -0.005966902
-0.05621168 0.04006996 -0.059964493 0.012589544 -0.06104143 -0.054808013 0.054382384 0.02493424
0.01749847 0.05085589 0.025874972 -0.04324249 -0.014316283 0.024607278 0.0044810325 -0.040116034
-0.018052295 0.01716467 0.0092460215 0.053860255 -0.02610439 0.05718208 0.05653826 -0.011315994
-0.024971388 -0.0067799464 0.02062469 0.045553505 0.052030854 0.018283732 0.006731659 -0.0022191033
0.0044578835 -0.037327856 0.04697799 0.00287617 -0.007007122 -0.0037488788 0.049442664 -0.04552892
0.029378086 -0.004403256 0.021093816 -0.03212814 -0.018301234 0.013102554 -0.0046002343 0.056683406
0.05785963 -0.00027522445 0.03434901 -0.014622718 -0.035483018 -0.010064051 -0.034363247 0.045068905
-0.044296302 -0.057038672 0.0014442354 0.061501168 0.014739916 -0.04156375 0.042076737 0.050561197
-0.01727119 0.05115617 -0.05153773 0.025600106 -0.043193452 0.044816107 0.028819926 -0.03750316
-0.036396876 0.0075321645 0.0312701 -0.054900482 -0.015302755 -0.043449536 0.003379181 -0.0035030395
0.037745014 -0.04604371 0.0623016 -0.01471664 -0.043015555 0.0556888 -0.055741638 0.055083305

bias f4 [3]
00000000: 6ab0 273d 881b 55bd bc23 7ebd
0.040939726 -0.05202821 -0.062045798
